…
Additional GRPC error information from remote target /job:worker/replica:0/task:0:
:{"created":"@1713068245.950171984","description":"Error received from peer ipv4:10.11.1.35:8000","file":"external/com_github_grpc_grpc/src/core/lib/surface/call.cc","file_line":1056,"grpc_message":"Collective instance 121 expected type 1 and data_type 1 but got type 1 and data_type 9","grpc_status":13}
['c34', 'c35']
Creating a new model
Model: "sequential"
_________________________________________________________________
Layer (type)                 Output Shape              Param #   
=================================================================
conv2d (Conv2D)              (None, 32, 32, 32)        896       
_________________________________________________________________
conv2d_1 (Conv2D)            (None, 32, 32, 32)        9248      
_________________________________________________________________
max_pooling2d (MaxPooling2D) (None, 16, 16, 32)        0         
_________________________________________________________________
conv2d_2 (Conv2D)            (None, 16, 16, 64)        18496     
_________________________________________________________________
conv2d_3 (Conv2D)            (None, 16, 16, 64)        36928     
_________________________________________________________________
max_pooling2d_1 (MaxPooling2 (None, 8, 8, 64)          0         
_________________________________________________________________
flatten (Flatten)            (None, 4096)              0         
_________________________________________________________________
dense (Dense)                (None, 128)               524416    
_________________________________________________________________
dense_1 (Dense)              (None, 10)                1290      
=================================================================
Total params: 591,274
Trainable params: 591,274
Non-trainable params: 0
_________________________________________________________________
Traceback (most recent call last):
  File "cnnhw.py", line 257, in <module>
    X_train, y_train, X_test, y_test, model = get_data_and_model(cdir, checkpoint_exists)
  File "cnnhw.py", line 179, in get_data_and_model
…
